insert_to_mongo/questions/question2/alice_model.pt (torch, 2199 bytes, 5 tensors)

fc1.weight f4 [5, 3]
00000000: 8067 d33c b58c d1be 4a67 7bbe 98d5 afbe
00000010: aebd ab3e 7079 093d e842 d3be 487c b03e
00000020: 6225 19be 0ce0 f13e b496 033f 1122 83be
00000030: b8a5 0c3f ec91 a2be 4842 003f
0.025806189 -0.40927663 -0.2455112 -0.34342647 0.33543152 0.033563077 -0.41261983 0.3446982
-0.14955667 0.47241247 0.5140183 -0.25611928 0.54940367 -0.31751955 0.5010114

fc1.bias f4 [5]
00000000: 5b0c 92be 6646 77be 159f 11bf 4479 853e
00000010: 0285 8cbe
-0.2852505 -0.24147949 -0.56883365 0.2606908 -0.27445227

fc2.weight f4 [5, 5]
00000000: 1aa8 c43e 0cb0 2b3e 66da c93e 88aa ce3d
00000010: 84d4 06be 5cec d83e 0d8c 5fbe b689 a03e
00000020: 6e17 a53e e929 e4be 4848 acbd 68bd d83d
00000030: 689c 1c3e de7f 2cbe 4086 673d 10b4 b93c
00000040: 4318 5dbe 540d c1bd 1789 90be 637c 60be
00000050: 42e0 c63e 788f e0bd 7c00 3cbe 283e 4ebd
00000060: 521a db3e
0.384095 0.16766375 0.39424437 0.1009112 -0.13167006 0.42367828 -0.21830769 0.31355065
0.32244438 -0.44563225 -0.08412224 0.105830014 0.15294039 -0.16845652 0.056524515 0.022668868
-0.21591286 -0.0942637 -0.2822959 -0.2192245 0.3884297 -0.109648645 -0.1835956 -0.050352246
0.42793518

fc2.bias f4 [5]
00000000: 031b c2be 381a e1be 2c37 d8be 1c57 2c3e
00000010: d0d4 d8bc
-0.37911233 -0.43965316 -0.42229593 0.16830105 -0.026468664

fc3.weight f4 [1, 5]
00000000: 0ad6 973e 62c4 1abe b162 dcbe db78 4cbe
00000010: b824 353e
0.29655486 -0.15113977 -0.43044046 -0.19967978 0.17689788
